mnist_nn_model.npz (npz, 408086 bytes, 4 tensors)

W1 f8 [784, 64]
000000 64 ae d2 e6 6c 58 74 3f 92 2f 1c a1 39 a7 56 bf
       0.004967141530112327 -0.0013826430117118466
000010 33 08 43 ae 81 87 7a 3f 9e a6 ed 11 10 31 8f 3f
       0.006476885381006925 0.015230298564080254
000020 33 37 bd 5b 8d 2e 63 bf d4 77 52 37 35 2e 63 bf
       -0.0023415337472333596 -0.0023413695694918055
000030 80 54 d7 c7 cf 2b 90 3f 2d 0a 2a ea 22 6f 7f 3f
       0.015792128155073915 0.007674347291529088
000040 6e 8e 6c b5 cb 3a 73 bf b5 4e ee 86 27 39 76 3f
       -0.004694743859349522 0.005425600435859647
000050 00 4f 9a 65 49 fb 72 bf 9e 47 a8 c9 87 13 73 bf
       -0.0046341769281246226 -0.004657297535702569
000060 33 62 d6 0d 51 d2 63 3f 7a d0 27 a3 8c 97 93 bf
       0.002419622715660341 -0.01913280244657798
000070 0c 40 28 c3 c4 a9 91 bf 37 9f d8 17 03 08 77 bf
       -0.01724917832513033 -0.005622875292409727
000080 c4 7c 0e eb 26 be 84 bf f5 8c 3b 85 3e be 69 3f
       -0.010128311203344238 0.003142473325952739
000090 d3 e3 aa 48 a9 98 82 bf f5 89 bd f0 89 ec 8c bf
       -0.00908024075521211 -0.014123037013352916
0000a0 b0 2f 65 7a 38 04 8e 3f 06 95 93 48 df 7e 62 bf
       0.014656487689215542 -0.0022577630048653567
0000b0 97 3a 49 27 ad 20 46 3f 92 8e 2f a5 c8 2d 8d bf
       0.0006752820468792384 -0.014247481862134568
0000c0 7b 21 bc 3f 44 4c 76 bf ef 2c ec 3c 6e 2c 52 3f
       -0.005443827245251827 0.001109225897098661
0000d0 96 b4 d5 6d 85 92 87 bf 0a 1c a1 60 f5 c6 6e 3f
       -0.011509935774223028 0.0037569801834567195
0000e0 55 42 c9 34 27 9a 78 bf 15 22 0f e5 42 e5 67 bf
       -0.00600638689918805 -0.002916937497932768
0000f0 c1 f2 68 e3 59 a5 78 bf 61 bc 05 d9 a2 f7 92 3f
       -0.006017066122293969 0.01852278184508938
000100 6a 5e d7 c6 ea b0 21 bf 78 05 e1 93 73 a9 85 bf
       -0.0001349722473793392 -0.010577109289559003
000110 19 09 c2 17 81 d8 80 3f a9 2b 03 9c bc 00 89 bf
       0.00822544912103189 -0.012208436499710222
000120 93 95 28 e3 2f 1c 61 3f 21 71 b8 5b 28 11 94 bf
       0.0020886359500475542 -0.019596701238797757
000130 51 18 71 23 85 33 8b bf 9a dd 5e b6 7a 20 60 3f
       -0.013281860488984306 0.0019686123586912354
000140 f3 a0 a4 21 62 3f 7e 3f f1 3a 80 e8 b4 13 5c 3f
       0.007384665799954104 0.001713682811899705
000150 b8 a4 0b fa a3 f2 52 bf 01 5c 15 28 9a aa 68 bf
       -0.0011564828238824054 -0.0030110369558928878
000160 27 85 9a 9f b6 47 8e bf 32 c0 52 15 1d 7c 7d bf
       -0.014785219903674275 -0.0071984420839470865
000170 06 f5 0b c9 25 de 72 bf e4 a6 28 6f 5d a6 85 3f
       -0.004606387709597875 0.010571222262189157
000180 33 0c 1f a5 32 26 6c 3f 13 4b 5a 38 b4 0d 92 bf
       0.003436182895684614 -0.01763040155362734
000190 00 1f e8 8f 88 8c 6a 3f 15 d6 35 c0 c2 8b 6f bf
       0.00324083969394795 -0.0038508228041631656
0001a0 11 68 85 a8 0a ba 7b bf 01 77 02 09 e4 0d 79 3f
       -0.006769220003059588 0.006116762888408679
0001b0 9f 43 81 22 68 1d 85 3f 51 ca 66 04 97 12 83 3f
       0.01030999522495951 0.009312801191161986
0001c0 54 55 51 b1 ea 2f 81 bf 84 35 60 4d a7 54 69 bf
       -0.008392175232226386 -0.003092123758512146
0001d0 40 43 5b 01 19 23 6b 3f cd 4c 57 81 aa fa 83 3f
       0.0033126343140356396 0.009755451271223592
0001e0 e5 a7 e6 8c 81 a0 73 bf 2d 6e 1b 15 1a 6b 5e bf
       -0.0047917423784529 -0.0018565897666381712
0001f0 7b ca 8a aa 61 a8 86 bf 24 f3 5f 5a 91 7f 88 bf
       -0.011063349740060282 -0.011962066240806708
000200 15 41 bf b2 f9 a3 80 3f 8c 82 75 8d 9a c6 8b 3f
       0.008125258223941981 0.01356240028570823
000210 a7 c7 f9 95 a5 98 47 bf c5 0a 27 0e 67 8d 84 3f
       -0.0007201012158033385 0.010035328978920241
000220 73 05 34 a0 0e a0 6d 3f d6 69 af 27 92 6c 7a bf
       0.0036163602504763414 -0.006451197546051243
000230 8e c4 1a e2 03 9b 6d 3f ae eb 3d bc bd 7f 8f 3f
       0.0036139560550841393 0.015380365664659692
000240 2c 16 c9 a9 9c 7a 37 bf ec bc 43 95 9e 05 90 3f
       -0.0003582603910995154 0.01564643655814006
000250 a3 3c d6 2d 81 d3 9a bf ae b3 24 de 22 d5 80 3f
       -0.026197451040897445 0.00821902504375224
000260 c4 59 75 8e 09 86 4c 3f 67 de 48 7d a3 7e 68 bf
       0.0008704706823817123 -0.002990073504658675
000270 3e 69 df ab 73 11 4e 3f 68 64 78 eb 4a 5a 94 bf
       0.000917607765355023 -0.01987568914600893
000280 d8 4f b7 77 da fe 61 bf 6a b0 00 85 31 41 6d 3f
       -0.0021967188783751194 0.003571125715117464
000290 d6 22 21 cf 6b 44 8e 3f 3e 80 13 06 75 3a 75 bf
       0.014778940447415161 -0.005182702182736474
0002a0 f3 15 ad be d5 8e 80 bf 68 5a d6 ce 4d 8d 74 bf
       -0.008084936028931877 -0.005017570435845366
0002b0 1f 56 a8 ec 57 bf 82 3f d7 d3 a4 14 69 ee 6a 3f
       0.009154021177020742 0.0032875110965968446
0002c0 8a f9 fb 37 f0 b2 75 bf 37 b3 4a c6 ff 05 75 3f
       -0.005297602037670388 0.005132674331133561
0002d0 0d 56 85 7f 74 cf 4f 3f 17 3b 76 4c 7d d6 83 3f
       0.0009707754934804039 0.009686449905328893
0002e0 7b 7b 85 6c 8f c1 7c bf 84 36 35 c1 92 d7 6a bf
       -0.007020530938773524 -0.003276621465977682
0002f0 2f 55 12 4f 8d 0f 70 bf cd 9e 27 83 08 f9 8d bf
       -0.003921081531321576 -0.014635149481321186
000300 75 e1 d0 a1 17 42 68 3f 0f 49 11 d2 b9 62 65 3f
       0.0029612027706457608 0.002610552721798893
000310 6d cf eb 52 2a cf 0a 3f 7e 3c 17 15 a6 37 63 bf
       5.11345664246089e-05 -0.0023458713337514694
000320 be de e7 73 9e fc 8c bf 21 04 b8 30 c9 3a 71 bf
       -0.014153707420504143 -0.00420645322765359
000330 60 38 e9 8c 3e 13 6c bf 83 c3 b0 52 3e 6e 80 bf
       -0.003427145165267695 -0.00802277269221619
000340 f6 60 6d 24 d0 6c 5a bf d9 de 8c c2 c7 8c 70 3f
       -0.0016128571166600914 0.004040508568145384
000350 11 20 65 ee 85 50 93 3f 0c 99 e6 fd 52 9a 5c 3f
       0.0188618590121053 0.0017457781283183897
000360 58 23 ac 21 39 19 65 3f 48 6d 20 de f9 64 48 bf
       0.0025755039072276435 -0.0007444591576616722
000370 fe 86 ba 90 f1 a5 93 bf 8a c6 89 47 4a 60 31 bf
       -0.019187712152990415 -0.00026513875449216877
000380 46 24 de e8 79 bc 43 3f 1f 34 9c cc 3d 39 99 3f
       0.0006023020994102644 0.024632421124852862
000390 b3 83 c4 21 34 84 5f bf 69 a4 86 f7 e7 b3 68 3f
       -0.0019236096478112252 0.0030154734233361247
0003a0 ae b0 1d 28 ab bf 36 bf 09 21 17 1c 3d ef 87 bf
       -0.0003471176970524331 -0.01168678037619532
0003b0 be c1 13 d1 ae 67 87 3f 3b ad 77 dd 96 cc 7e 3f
       0.011428228145150206 0.0075193303268677415
0003c0 1f 4a 69 1b 49 33 80 3f f3 08 38 2e cf 9f 82 bf
       0.00791031947043047 -0.009093874547947389
0003d0 57 2e 14 a7 ae ba 8c 3f 40 05 7c a5 bc b5 8c bf
       0.014027943109360992 -0.014018510627922809
0003e0 4c 32 0c 84 a4 09 78 3f 91 37 0c e3 25 6e 96 3f
       0.005868570938002703 0.021904556258099787
0003f0 8b 41 c1 59 43 49 84 bf 04 06 8d e4 0f 32 77 bf
       -0.009905363251306884 -0.005662977296027719
000400 7e 12 98 62 ae 53 50 3f 51 76 00 2b 53 9f 74 bf
       0.0009965136508764123 -0.005034756541161992
000410 73 f0 e1 39 f1 c1 8f bf fe b2 2b ac 7a 77 46 3f
       -0.015506634310661327 0.0006856297480602733
000420 e7 b7 b5 e8 87 c1 85 bf ea 9c 31 00 fa 65 73 3f
       -0.01062303713726105 0.004735924306351816
000430 cc ed 5f 51 6e d4 82 bf 83 8c 70 be 1e be 8f 3f
       -0.009194242342338031 0.015499344050175395
000440 f5 66 01 c6 80 0a 80 bf 27 bd 68 99 1e 62 6a bf
       -0.00783253292336237 -0.003220615162056756
000450 a3 83 77 53 2c a9 80 3f 01 b2 ca 1e 46 35 89 bf
       0.008135172173696697 -0.012308643164339552
000460 7e 21 b0 39 2e a2 62 3f f0 bb 77 4e 31 c5 8a 3f
       0.002274599346041294 0.013071427542824282
000470 a9 33 da bc eb 75 90 bf 7c f2 d7 f5 1a 40 5e 3f
       -0.016074832345612276 0.001846338585323042
000480 12 38 ab 20 23 4a 65 3f 21 6e 3e e5 00 03 80 3f
       0.0025988279424842354 0.007818228717773103
000490 00 b3 ff 23 2f 55 89 bf 45 ca 84 dd fe 0a 8b bf
       -0.01236950710878082 -0.013204566130842763
0004a0 56 76 c2 38 f4 60 75 3f 81 2a dd 52 38 54 68 3f
       0.005219415656168977 0.0029698467323318605
0004b0 43 9d 09 40 37 85 64 3f 1b 83 74 a9 8b 61 6c 3f
       0.0025049285034587656 0.003464482094969757
0004c0 2a 1c 58 76 93 da 7b bf 50 32 c7 8a b6 06 63 3f
       -0.006800247215784908 0.0023225369716100355
0004d0 d0 59 37 dc 2c 02 68 3f 5b 1f 86 7c 84 42 7d bf
       0.0029307247329868127 -0.007143514180263678
0004e0 3d 78 48 14 04 1b 93 3f 00 7e da 8f 7f 68 73 3f
       0.018657745111447566 0.004738329209117875
0004f0 16 c3 ce 7c dc 65 88 bf b3 30 58 ac 76 e4 7a 3f
       -0.011913034972026487 0.006565536086338297
000500 17 9b cf 97 23 f6 83 bf cf a9 94 12 97 1e 80 3f
       -0.009746816702273215 0.00787084603742452
000510 3f ae b0 a9 60 ba 87 3f 97 07 6b 29 bd ce 80 bf
       0.011585955790074041 -0.008206823183517105
000520 cb 13 82 8d dd ba 83 3f 9e 88 0e 5d 52 e8 70 3f
       0.009633761292443218 0.004127809269364983
000530 94 a0 33 78 f6 d5 80 3f 39 7a 1c 39 54 6c 93 3f
       0.0082206015999449 0.018967929826539474
000540 83 39 94 6a 29 1a 64 bf 92 d0 1d 1c 7f df 7e bf
       -0.002453881160028705 -0.007537361643574896
000550 ee d2 c3 0e 9e 37 82 bf d5 4c 7e 07 32 b5 80 bf
       -0.008895144296255233 -0.008158102849654384
000560 09 6f 1c 9a c2 43 49 bf ed e2 ef b7 79 f2 6b 3f
       -0.000771017094141042 0.003411519748166439
000570 5f d6 f3 6a a0 aa 66 3f c4 54 31 90 d2 f0 80 3f
       0.0027669079933001907 0.008271832490360238
000580 21 91 0e 02 b6 0a 21 3f 0d 40 00 6a b4 c4 8d 3f
       0.0001300189187790702 0.014535340771573169
000590 4a f6 e4 8d 41 ae 65 bf 4d 52 67 a0 c2 da 9b 3f
       -0.0026465683323795607 0.02720169166589619
0005a0 b0 fb 7d ff 98 a0 79 3f e0 42 c9 65 f9 8d 81 bf
       0.006256673477650063 -0.008571575564162826
0005b0 6d 4d 89 94 8f ee 85 bf 87 91 26 07 17 c3 73 3f
       -0.010708924980611123 0.0048247241524318535
0005c0 81 1d 8d b1 5a 4e 62 bf f5 ba 6e 7b d6 3e 7d 3f
       -0.002234627853258509 0.00714000494092092
0005d0 27 27 53 93 41 62 73 3f 40 c7 85 fd 54 dd 47 bf
       0.004732376245735448 -0.0007282891265687277
0005e0 ba 82 0b 4a a3 57 81 bf 73 b4 13 87 29 06 8f bf
       -0.00846793718068405 -0.015148472246858646
0005f0 e9 c3 9b 72 0c 4a 72 bf a9 c2 1d 01 ff 89 81 3f
       -0.004465149520670211 0.008563987943234723
000600 d1 ae 61 09 df 89 61 3f 6e 39 1d 49 42 83 89 bf
       0.0021409374413020395 -0.01245738778711988
000610 6e ba 34 08 bc 5f 5c 3f 4e bb 3e ee b0 90 6f 3f
       0.00173180925851182 0.003853173797288368
000620 53 f4 9f 5e f5 19 82 bf c8 a6 ab c1 b2 2f 59 3f
       -0.00883857436201133 0.0015372510594552791
000630 8a b9 d8 b5 e6 12 43 3f b2 63 f5 c3 74 68 87 bf
       0.0005820871844599989 -0.011429702978306231
000640 0a c0 b7 43 58 4f 6d 3f 35 ff 22 80 40 f8 76 3f
       0.003577873603482833 0.005607845263682344
000650 a7 e0 8b c5 4e 2e 86 3f 44 ed fe 2b f5 94 85 3f
       0.010830512431752771 0.01053802052034903
000660 83 f8 67 86 f4 36 8c bf 57 7e 10 76 e7 34 83 bf
       -0.013776693679570911 -0.009378250399151229
000670 d7 b3 a1 44 89 18 75 3f 32 8c 02 a9 6f 0b 75 3f
       0.005150352672086598 0.005137859509122088
000680 89 6b f8 9a aa 18 75 3f f9 78 0d 2b da b9 a3 3f
       0.005150476863060479 0.03852731490654721
000690 fe 0e af 8b 38 62 77 3f 6c 84 f6 66 a2 41 87 3f
       0.00570890510693167 0.01135565640180599
0006a0 e9 5d f6 7d b7 89 83 3f ee c3 66 13 55 ae 7a 3f
       0.009540017634932023 0.00651391251305798
0006b0 c4 e8 73 de ac d3 69 bf 8d 07 e9 7c 5e 16 7f 3f
       -0.003152692446403456 0.0075896922049326744
0006c0 52 9b 83 e3 a8 a7 7f bf 15 fe ba 36 72 66 63 bf
       -0.007728252145375718 -0.002368186067400089
0006d0 b9 df 55 da 67 e1 73 bf c9 d9 58 c1 19 d4 4a 3f
       -0.004853635478291035 0.0008187413938632256
0006e0 da 8d cf 11 bd b3 97 3f 3c d7 67 75 ec 1e 93 bf
       0.023146585666735088 -0.01867265192591748
0006f0 a5 72 df ab f5 1b 7c 3f 80 e0 fa 4c a3 83 90 bf
       0.006862601903745135 -0.016127158711896517
000700 8e 8f b8 74 90 54 73 bf 8c 23 13 c0 3c 4d 86 3f
       -0.004719318657894335 0.010889505969673662
000710 8f 47 25 e6 32 10 45 3f 9b a6 f8 8d 7c 12 86 bf
       0.0006428001909546277 -0.010777447779293061
000720 44 9f 13 c6 80 4c 7d bf 57 40 fa 50 19 d6 7b 3f
       -0.007153037092599682 0.006795977489346758
000730 69 03 92 ff 72 ea 7d bf 81 c2 38 34 77 bb 61 3f
       -0.007303666317171367 0.002164585895819749
000740 96 e0 bb 9e af dd 3d 3f 70 e0 48 5d 86 b0 7a bf
       0.00045571839903813785 -0.006516003476058171
000750 c9 97 ec 85 38 f4 95 3f a5 20 11 6b 1f f7 79 3f
       0.021439440893253257 0.006339190223180112
000760 4e 60 2d 2f ca bc 94 bf 9f 50 d8 f5 75 8c 5e 3f
       -0.02025142586657607 0.0018645431476942765
000770 80 d1 b2 83 55 1b 7b bf 51 fc 98 a7 34 75 81 3f
       -0.00661786464768388 0.00852433334796224
000780 81 d4 3c 54 17 3b 80 bf ba 65 ce 28 65 cc 52 bf
       -0.007925207384327006 -0.0011473644146689902
000790 47 e0 b2 e7 2c af 74 3f 27 cd 9f f3 0c bb 81 3f
       0.005049872789804572 0.008657551941701215
0007a0 b2 d8 1a 91 02 95 88 bf 50 05 e4 d5 ff 66 6b bf
       -0.012002964070557762 -0.003345012358409484
0007b0 77 aa 9c 9c 29 74 73 bf 36 ec fc 4d a7 c2 7a bf
       -0.004749453111609562 -0.006533292325737119
0007c0 07 d2 fb 48 08 14 92 3f 41 1c a6 80 8a 96 70 3f
       0.01765454240281097 0.004049817109609556
0007d0 bc 67 d5 cb a9 d2 89 bf 3d 63 96 73 3d cc 82 3f
       -0.012608839543350452 0.009178619470547761
0007e0 36 e4 86 ea 1a bb 95 3f a3 0f 44 6a 17 25 85 3f
       0.021221561970126333 0.01032465260551147
0007f0 17 ce 24 d9 df 1d 8f bf 79 15 0d f1 8f d5 73 bf
       -0.015193699659540134 -0.004842340728662514

b1 f8 [64]
000000 a8 5f c8 2d 0d 4a 90 3f 53 7d 02 9f d3 e4 94 3f
       0.015907483977656206 0.020404154377158545
000010 bd 5d ef f7 55 d4 81 3f 20 ca 54 cd e2 d0 90 3f
       0.008705779675365894 0.01642183664552921
000020 20 a5 66 16 d5 55 80 3f b4 97 63 63 ae 79 82 3f
       0.007976212259409865 0.009021150978195759
000030 42 ae 47 ba e3 99 a4 3f 30 7e 0d 2e 3f f2 7e 3f
       0.04023658417630972 0.0075552432980142
000040 16 2d ad c1 6f e5 69 3f 54 7c b8 a7 77 ab 93 3f
       0.003161161684521861 0.019208783733230497
000050 1f 6d db dd 9f ad 75 3f e7 57 f0 1d 09 ec 89 3f
       0.005292534331341941 0.012657233453904083
000060 c1 d0 b7 df 36 6e 7f 3f 04 d6 d2 b6 b2 95 9b 3f
       0.007673467971006599 0.026938240441003472
000070 e5 99 b4 4d 0c 09 82 3f 88 b1 28 78 bb 82 85 3f
       0.008806320306189394 0.010503258327923218
000080 1f 2c 39 1a 29 54 96 3f e8 6c 3e 27 00 39 85 3f
       0.02180542204432012 0.010362626264216648
000090 41 89 25 66 88 d9 a4 3f 50 50 24 27 fa a1 7c 3f
       0.04072214362055827 0.006990410957104912
0000a0 a6 5e 0a 84 a8 08 89 3f 0e 5e 0a 7f 46 59 85 3f
       0.012223545579487304 0.010424185516327202
0000b0 c3 36 50 ba 55 2c 40 bf 08 3b e5 f9 b0 ea 42 3f
       -0.0004935663788516387 0.0005772937909485918
0000c0 07 b3 74 3b 9f 6d 95 3f 7e f4 a1 76 c4 df 81 3f
       0.020925987247369295 0.008727583761578336
0000d0 74 f4 8b b2 ef 9e 8b 3f d9 bb dd dd f9 43 6e 3f
       0.01348674071913989 0.0036945228775304537
0000e0 d7 d7 a1 a1 e9 99 92 3f 65 98 14 9a 4c f1 7e 3f
       0.018165255060431065 0.007554339624482241
0000f0 86 69 67 15 ac fc 7e 3f 05 d1 71 8f fa 09 a6 3f
       0.007565185739134233 0.04304488183052694
000100 1c e2 0b 78 72 8d 53 bf 82 ea 6c d2 be 6b 91 3f
       -0.0011933915959031543 0.01701257857642214
000110 36 14 1e aa b7 7e 94 3f e1 82 c4 80 c2 85 a3 3f
       0.02001463867010874 0.038129881113723625
000120 ec 21 76 e1 98 cb 41 bf 66 11 a7 73 10 87 97 3f
       -0.0005430695045314771 0.02297616678130634
000130 fa 38 8b 68 c1 b7 71 3f 37 4c e4 82 dd ee a1 3f
       0.004325633527243017 0.0350255224494948
000140 98 67 02 2c d2 82 75 3f fc 11 00 70 12 30 9d 3f
       0.005251713737516449 0.028503692708925485
000150 5f f8 60 8e 2b 38 63 3f 51 53 8a 96 23 2f 9b 3f
       0.002346119948042832 0.026547008574726864
000160 62 77 54 bb db f5 59 bf ee 34 0b d8 4e 7c 54 3f
       -0.0015844960992760994 0.0012503404579320937
000170 27 d2 90 d7 18 7b a3 3f 85 e1 9e 5d 37 98 9b 3f
       0.03804853087823217 0.02694784649767847
000180 35 70 ec 65 10 0b 97 3f 7d 78 a5 3c 0e bc a5 3f
       0.022503143521234576 0.04245037546455508
000190 9f d1 8d b7 47 a7 94 3f bb bd b8 88 d8 d4 91 3f
       0.020169373110051955 0.017413504929377526
0001a0 8a 46 92 8f 7f 26 80 3f 66 86 24 27 49 ac 96 3f
       0.007885929650260044 0.02214159299285825
0001b0 66 dd 72 f9 04 2f 77 3f 71 cf 12 18 e3 8a 8b 3f
       0.0056600755989884895 0.013448499843754043
0001c0 2f 07 c8 89 f6 23 9c 3f 15 64 06 2e 70 6a 9d 3f
       0.027480938109881222 0.028726342019215496
0001d0 3c ab ca 19 5b 8b 93 3f 2f ac 74 11 94 a2 95 3f
       0.019086287926863607 0.02112799984494645
0001e0 0d e6 34 8f 1e 90 74 3f 40 8f fa e4 7a 4f 94 3f
       0.005020255444202271 0.019834442353967363
0001f0 f6 29 3d 60 cc 7d 9f 3f 6b bf 83 c9 ba 18 94 3f
       0.03075332009692918 0.019625586080052864

W2 f8 [64, 10]
000000 a9 73 db 9f 50 b2 b3 bf 24 77 c4 d9 8b 79 ae bf
       -0.07693962004436962 -0.05952107461256009
000010 8e 9f 62 7a 6e 40 9e bf aa ee d4 c3 9e 45 a3 bf
       -0.029542661876490288 -0.03764053478741165
000020 26 4c 1f f7 54 09 b2 3f 3b 32 ca 64 8e 9b a8 bf
       0.07045489342935748 -0.04806179981560318
000030 4b 9d e9 bc d7 da b7 bf a7 e7 9f d6 88 d3 c4 3f
       -0.0931830249988838 0.1627055213901347
000040 36 37 d4 17 26 cd 7e 3f ad b3 1c da d8 15 ba 3f
       0.007519863892651737 0.10189585995676849
000050 13 86 9a 64 e4 b3 92 bf 9d fa 16 1a 89 81 c4 3f
       -0.01826435913119979 0.1602031113997854
000060 d2 3a 40 bb d3 2f ba 3f fc 76 2a 35 e8 fa b0 bf
       0.1022922832637321 -0.0663285379218585
000070 14 77 a0 84 bd a0 9a bf 4d 13 1b 7f 20 13 99 bf
       -0.02600380060186243 -0.024487025983734246
000080 71 3d 85 ab e9 58 b2 bf ba 65 1e 39 84 63 a9 bf
       -0.07166920125495381 -0.04958737561464539
000090 fe 18 b1 20 a4 8f b0 3f df 1a 36 7c a8 88 a9 bf
       0.06469178960933061 -0.04987074390651513
0000a0 f0 8f 1b fb 8c ef d8 3f b5 ad 11 b5 93 89 ca bf
       0.38962101480706135 -0.20732351628553905
0000b0 ab de 02 a3 63 65 bf 3f c6 ea a7 62 5d d2 bf 3f
       0.12264082650915024 0.12430366190521189
0000c0 19 39 24 1d 75 2b c7 bf 96 aa 44 ce d4 bb bd 3f
       -0.1810137169163191 0.11614732776494416
0000d0 9c 1e 7c 4e ce 3f bc 3f d2 63 47 38 c0 97 cd bf
       0.11034860054143752 -0.23119356868735835
0000e0 7c d7 4f 74 1d ef 66 bf 88 6d 62 9a 45 b8 ce bf
       -0.0027995658188001964 -0.23999853170685648
0000f0 dc c0 b9 2f a9 07 a3 3f d2 66 1d f6 da bf c1 bf
       0.03716782291019324 -0.13866745965315502
000100 2c 37 22 fe 11 16 c0 3f 9b 5a 01 cc 18 c7 c5 bf
       0.125673531616877 -0.1701384540671896
000110 b9 c2 75 e1 ca ce c3 3f df 80 32 e6 eb 88 a8 bf
       0.15474830635823425 -0.04791962800050142
000120 c9 8e 92 19 d6 b0 ce 3f d7 a1 27 7f a5 ce c1 bf
       0.23977161644608305 -0.1391188498375999
000130 f2 74 54 72 d4 cb 99 bf 8f 29 bd c6 03 4d 7b 3f
       -0.025191611745971572 0.006665243865266026
000140 33 04 9e aa 0a 21 b2 3f 59 ab a6 87 46 92 c3 bf
       0.07081667581043476 -0.15290147422396208
000150 3a 31 4a 6a 1d 53 9f bf a5 6c f6 93 9f 9f 67 3f
       -0.030590495693602927 0.0028837315328025964
000160 68 cb 30 a1 f0 a9 a3 bf 5f 36 09 20 6a 06 9d 3f
       -0.038405913998210306 0.0283447820714201
000170 91 14 aa f0 11 ab b2 bf bc 6d fd 04 82 14 ba 3f
       -0.07292282224269032 0.10187542554688539
000180 79 47 af 68 2e ba a2 3f 67 50 3c 5c 9c 35 77 3f
       0.03657670047654355 0.00566636160126075
000190 eb 61 92 5d a7 d4 a3 bf ab c8 bf b4 50 15 9b bf
       -0.038731794521655726 -0.026448498756459198
0001a0 6e 94 0b 21 b4 34 c4 3f 30 98 03 ba d2 c9 a1 3f
       0.15785838712250516 0.03474291344336711
0001b0 ca 9b ad 23 b9 65 bd bf 13 f2 ef 64 40 42 a7 bf
       -0.11483342286156453 -0.04542733413834212
0001c0 a7 43 4c 82 9f e3 cc 3f d6 7b 30 c3 78 dd af bf
       0.22569650518610482 -0.06223657019312838
0001d0 8e f6 ea 73 d6 ce a8 bf 5a 78 56 aa f6 b1 bf bf
       -0.048453046465039326 -0.12380925806653079
0001e0 18 f5 4d 91 43 c9 d0 bf 49 78 78 93 fb 39 c1 3f
       -0.2622841757764305 0.1345819921561449
0001f0 07 d2 76 5e ea b7 92 3f 4f 64 e0 20 32 8f b0 3f
       0.018279706969865497 0.06468499472284005
000200 8e 92 a8 b0 81 12 ab bf c2 b0 dd 1a 81 a7 50 bf
       -0.05287556916690504 -0.0010164986410599462
000210 47 1f fa 56 91 26 c1 3f b4 8c a8 92 93 c0 ad bf
       0.13398949381757516 -0.05810986676467547
000220 f4 e9 ae b3 e7 30 7b 3f 91 e3 4a 5c e9 b0 a0 3f
       0.0066384363989819735 0.032599728122881484
000230 c6 be 10 6e 7f c5 84 bf a3 54 94 cd 24 a7 a5 bf
       -0.010142322107724932 -0.042290830702918634
000240 1d 26 d7 42 85 66 23 3f 28 15 35 92 05 33 8d bf
       0.00014801384661060425 -0.014257472538370466
000250 16 ff ad 3f 3a 97 a1 3f b4 4c 3a e7 47 2f 97 bf
       0.03435689952220693 -0.02264129971315461
000260 7b d1 24 db 51 65 9a bf a4 ff 4c 43 37 ef b6 3f
       -0.025777129173734075 0.08958764451108309
000270 16 c2 ba 91 27 99 65 3f e3 29 8c d1 15 63 a3 3f
       0.002636506351187738 0.03786533530190519
000280 9f bb ff fc 8d f5 8c 3f 52 47 ba 73 0c 08 c0 bf
       0.014140233310141968 -0.12524562502636144
000290 3c fe 13 a4 2c 67 bd bf e9 38 c5 00 6b bc cd 3f
       -0.1148555660802168 0.23231256044022722
0002a0 48 22 6d df 61 56 a5 bf e8 ab 89 ef 4e c4 bc 3f
       -0.04167466976520423 0.11237042759027782
0002b0 65 8b 72 3b 97 bb ad bf e0 9e f6 fb 3c 57 b6 bf
       -0.05807182884861709 -0.08726864959191571
0002c0 d0 12 10 6c a8 b9 ac 3f 83 61 6a 3c 2b 3f a2 bf
       0.056103957358606515 -0.035638190388627165
0002d0 51 f4 2f fa 0e fd b8 bf 9b 60 6b aa a3 d1 a8 bf
       -0.0976113663491145 -0.04847442107501473
0002e0 a7 62 51 1e 50 e4 b8 bf ce 24 e3 37 8e 8d a8 bf
       -0.0972337793367709 -0.04795498306482103
0002f0 78 cd 5b 27 59 16 c5 3f 73 b0 fe 70 72 7a 8c bf
       0.1647445146732982 -0.013905424187975001
000300 df 97 ef ba 46 84 73 bf b9 5c db 26 e3 7a 6c bf
       -0.004764820375362049 -0.0034765659864706947
000310 80 d3 7c b6 f5 55 9b 3f fb d8 1c 68 f6 5e c1 3f
       0.02669509817424709 0.13571052631022681
000320 45 8b d3 e5 34 e8 99 bf b9 87 cb dc cb e0 8f bf
       -0.02529986050366097 -0.015565483737592577
000330 95 97 a8 2b 91 d0 85 bf 49 da 20 aa e8 91 8a 3f
       -0.010651716370442968 0.012973611537842393
000340 1d 89 6c f1 d7 f6 a3 3f 28 38 ae 71 9c e6 97 3f
       0.03899264165944969 0.02334064906931857
000350 9c cb 9b 32 a2 10 91 bf c6 73 af ec 30 3d 87 bf
       -0.01666501459017021 -0.011347181532920813
000360 74 4b 91 a1 e9 df 9a 3f 48 1b 8a 9f b6 16 6a bf
       0.026244783865262147 -0.003184658704700114
000370 b6 fa 7e 0a e7 98 c7 3f 30 0b b6 45 b8 6a b8 bf
       0.18435371410847318 -0.09537841512614587
000380 21 42 4c 9a 85 ad b3 bf 9c 5b 09 a4 a6 d6 b6 3f
       -0.07686648385084328 0.08921281342314419
000390 f7 29 94 b3 35 3e b6 bf b5 76 bc b1 19 11 bb 3f
       -0.08688674577948761 0.10572968091261255
0003a0 d1 9f a4 1f 25 1e ad bf e1 53 dd a8 61 a0 91 3f
       -0.05687061320560328 0.01721336930434692
0003b0 da f8 d0 9e 81 2d 95 bf 22 65 3b 92 f9 d5 ae bf
       -0.020681405371072305 -0.060226248837077515
0003c0 08 4b ac e8 7a b8 b3 bf c4 56 43 9f f5 bc 9d 3f
       -0.07703369312757158 0.029041135640759178
0003d0 83 52 86 d4 5f c4 b8 3f 81 66 c7 b8 01 5c 9e bf
       0.09674643457976555 -0.029647852805146705
0003e0 f7 5d 56 3e 7c 23 7c bf 65 68 59 9a 3e 9d 99 bf
       -0.006869778944199371 -0.025013902827005902
0003f0 d6 94 5d ba df 08 79 bf a8 6d d2 c3 49 2a 9b bf
       -0.006111978471243526 -0.026528503968263145
000400 50 42 56 46 61 de b1 3f 81 15 65 32 a4 31 94 bf
       0.0697994991990154 -0.019720616889818302
000410 26 a0 17 fd 86 c7 b5 bf 7a 62 9a d2 bc a6 97 bf
       -0.08507579497347759 -0.023096990923109996
000420 4e f1 5f 9a f2 44 c2 bf 10 89 14 e0 18 e3 b1 3f
       -0.1427291158469281 0.06987147780140313
000430 60 13 00 b7 49 f4 ab 3f c5 0c 05 86 ea da ae 3f
       0.05459814413919761 0.060263947353200766
000440 5b 7b 1a 32 07 41 c6 bf 73 5f 94 8d e8 38 c0 3f
       -0.17385950037438644 0.12673670685830593
000450 82 c5 77 cc 3e 7e a8 3f 77 3d a7 90 89 ee ba 3f
       0.04783817525811697 0.1052022913129259
000460 5e 92 64 45 0f 6b 95 3f 85 52 ab a6 b3 0a 91 bf
       0.020916212664035753 -0.01664238648193585
000470 ad 30 68 6c ab 0f ad bf 48 82 bb 03 43 f7 b7 3f
       -0.05676017473533199 0.09361666527866774
000480 3e 64 88 af a3 f4 ae bf 67 3f c6 20 4c 99 b9 3f
       -0.06046020047887922 0.09999538231045123
000490 08 15 b6 d7 d0 75 b2 bf 33 dd f7 2c de 37 ad bf
       -0.07211022631061692 -0.0570668630497785
0004a0 bc db 67 4e 40 c6 b3 3f 7a fc 43 06 99 f2 aa bf
       0.07724382318688944 -0.05263212396129631
0004b0 bb df 31 37 8a 74 b9 3f f6 cd c1 31 e1 7f bd bf
       0.0994345078232745 -0.1152325388409777
0004c0 03 48 ca f6 fd ba b6 bf e1 ea bd 48 4e e5 b3 bf
       -0.08879077220106528 -0.07771767879414028
0004d0 8d ed db 13 46 c3 91 3f cb e9 9b 87 d9 65 b8 3f
       0.017346472704031824 0.09530410347716793
0004e0 9f dc ac cc 1a ed bf 3f 67 4b dd be 86 a9 b6 bf
       0.12471168038324486 -0.08852426681305091
0004f0 0b 90 2b 15 14 96 a5 3f c0 60 3c 92 9e ee 7b bf
       0.04216063269066702 -0.006819362086183556
000500 f3 dd 24 dd ce fa b6 bf 7e 6e 98 66 2d 74 c1 3f
       -0.08976452731155131 0.13635795125525257
000510 ab bd 22 71 bd e5 80 bf c6 d2 8a 00 bb 4e a2 3f
       -0.008250694289329305 0.03575691587085354
000520 87 67 6b 0b f7 ef 9b bf 27 9a 99 7c 74 de 9c bf
       -0.02728258139800446 -0.028192348580342277
000530 d5 01 16 82 d9 3d 73 3f 47 cb 88 63 13 75 ac bf
       0.004697656289295489 -0.05558071699160521
000540 c0 da 40 61 f6 8a 8b 3f d3 1b 57 0f 7c 9e 75 bf
       0.013448643534599625 -0.005278095826219481
000550 09 ca 8e 42 00 24 b2 bf bc 4e ce 6c 06 fb 76 3f
       -0.0708618319029385 0.005610489938493831
000560 84 f7 cc 19 94 17 b0 bf 65 94 6e 5b 51 0b c7 3f
       -0.06285977964304662 0.180032891888149
000570 02 f9 77 ac fb af a7 bf ba f1 7e b0 2e e2 b1 3f
       -0.04626451950388068 0.06985751923543307
000580 86 ca cb 67 21 2f b5 bf 5f 82 09 99 d3 6c 94 bf
       -0.08275040420611832 -0.019946390357633677
000590 23 5a 62 55 98 a0 b7 3f 7c f2 b2 8f c3 89 a5 bf
       0.09229423603606128 -0.04206668023241364
0005a0 54 c4 66 88 ac ff c5 3f 1b 24 6a f0 30 56 d6 bf
       0.17186504993654472 -0.3490106914328536
0005b0 85 5f bd 98 a3 40 af bf ee 3e d0 51 70 0b d2 bf
       -0.06104003180979504 -0.2819481657943318
0005c0 17 e0 e5 36 40 8a c9 3f d2 e0 ae 7a 44 bd 59 bf
       0.1995315807396316 -0.0015710037939538524
0005d0 4f f7 0c 5c 26 6f bc 3f 97 7c 1b c5 c9 3f b4 3f
       0.11107101199465073 0.07909833013717314
0005e0 b1 a8 98 21 58 24 9f bf eb 3c 6b 02 ef db be 3f
       -0.030412079859310995 0.12054342087798246
0005f0 df 88 5a f2 2f 50 b1 3f 8b 69 a5 30 c5 1b b0 bf
       0.067629810970661 -0.06292374074602074
000600 0a 71 eb dd 40 4a be 3f 1e 62 d3 84 5f 76 b8 3f
       0.11832051675759572 0.09555623047652559
000610 e3 66 6a a8 cd f1 b2 bf f1 0e a9 27 00 8f 72 bf
       -0.07400212632856155 -0.004530907254380643
000620 80 ba 1a b1 6f 21 b4 3f 52 e0 43 bf ed d5 b3 bf
       0.07863519738996594 -0.0774830429035103
000630 1c 78 d0 4b 71 3d b2 bf a4 bc 9d 33 32 55 ba bf
       -0.071250039109572 -0.10286248932037495
000640 1c 85 e3 6f 34 90 b8 bf 01 37 22 c2 a4 e8 ac bf
       -0.09595039111765796 -0.05646242971225313
000650 31 c6 76 21 80 7d b0 3f f7 74 ea aa 62 de a7 3f
       0.06441498581877948 0.046618541110754856
000660 b8 3d ec 3d 40 8c a5 3f 9c 87 54 64 cb 05 a4 3f
       0.04208565479177245 0.0391067085240728
000670 06 39 c3 82 2e 7d c5 3f 4e 6f 75 2e 29 14 c3 bf
       0.1678827417840198 -0.14905276077740343
000680 89 4f 31 3f ac 75 94 3f c2 79 4b 5e 90 a6 9f bf
       0.019980136258098056 -0.030908828501986958
000690 f9 84 bc 98 ae 6c 7f bf 75 0f 69 32 fb b5 a9 3f
       -0.007672006624291011 0.05021653166161758
0006a0 9f b1 0b e1 af 58 ad 3f a7 73 59 f1 84 d2 86 3f
       0.057317253323933 0.011143721213722048
0006b0 fb 80 a1 32 74 e1 a8 bf 2b f5 da 9d 98 1b 78 bf
       -0.04859507673313775 -0.005885692747765329
0006c0 2a f3 32 a8 bc 51 b3 bf df 11 34 64 5a d1 73 3f
       -0.07546595674916703 0.004838326541407117
0006d0 ca f6 68 54 fa 9d b4 3f 4f a3 60 0c c3 6e af bf
       0.08053555069724463 -0.0613919212922328
0006e0 50 79 71 08 63 f9 7e bf a8 4e 4f dc 24 e1 24 3f
       -0.007562052581390269 0.0001592977042991124
0006f0 d6 13 de 91 e7 ac 52 3f 8b 51 aa fc bf 90 94 3f
       0.0011398564742830428 0.020083427235094525
000700 18 52 61 ff 66 90 77 bf 94 10 b4 7a d8 a8 60 bf
       -0.0057529471724433665 -0.002033636866714936
000710 72 52 11 7f b5 1e 79 3f a8 11 d8 85 d9 83 54 bf
       0.006132801981114088 -0.0012521385427827023
000720 68 dd b4 df 71 43 76 bf 2f fc 3d 2d de b5 78 bf
       -0.005435414142361018 -0.00603281772407542
000730 4e 4d 87 cc a1 14 45 3f d2 0c b0 38 55 40 69 3f
       0.0006433286699184888 0.0030824341279199552
000740 b2 21 62 d3 d0 d2 84 3f 7c 9c 00 98 64 76 5c 3f
       0.010167724085719285 0.0017372114525729112
000750 d5 e3 e0 6c 2c ba 9f bf 91 b0 64 71 54 44 90 bf
       -0.030983633180060217 -0.015885657711962656
000760 88 0d 0a f2 2a 84 77 bf 36 c4 d3 e2 8e 4c 7f 3f
       -0.005741279369093084 0.007641370915039627
000770 bc 96 7a 14 ce a8 7b bf e2 5b 9f 6a 8f ca 63 3f
       -0.006752781867964405 0.0024159241774941312
000780 f6 2d c6 14 3b e8 a2 bf 03 57 c0 d9 a7 4e b9 bf
       -0.03692803028669893 -0.09885644022173427
000790 d6 fa e6 94 af b3 b6 bf 3e d7 a2 96 74 d6 b2 bf
       -0.08867928872403338 -0.07358483007086833
0007a0 7c ee a3 78 2a e6 a8 3f e7 42 c8 e3 00 83 a8 3f
       0.048631026484113854 0.04787447720094012
0007b0 e8 75 ec be 90 84 a4 bf 5e 97 4b f8 ec 3e c4 3f
       -0.040073893838989794 0.15817033885758297
0007c0 64 07 fb 77 46 5e 69 bf c5 59 cc b1 b5 ea bf 3f
       -0.0030967117635051656 0.12467513647820912
0007d0 5c 60 94 24 e6 26 b2 bf a9 42 ab 0e 81 ce b0 bf
       -0.07090605156952406 -0.06565100296144045
0007e0 d3 93 ee fe 56 93 ab bf a4 a1 59 ca 5d 32 85 bf
       -0.053858488673803294 -0.010349972474799803
0007f0 0f 13 9b 6a b3 37 90 3f e7 82 92 07 67 28 a1 3f
       0.015837481862734978 0.03351137130198883

b2 f8 [10]
000000 9e e0 57 b4 16 c2 c1 bf 51 63 6e 3c 4f b5 c0 3f
       -0.1387356167394999 0.13053312731497127
000010 59 bf ad 8e de ce a9 bf d2 dd 76 a6 7f 04 7e bf
       -0.05040641299899446 -0.007328508981508235
000020 45 99 98 89 b1 44 aa 3f a9 fe 47 73 ab 85 9a 3f
       0.05130533985748057 0.025900534545142993
000030 46 0e 8e 98 71 2c 7c bf fa 1e 47 3b 71 73 aa 3f
       -0.006878322347691651 0.051662004934369635
000040 2a 94 14 cb 90 eb af bf 17 76 29 16 97 c5 79 3f
       -0.06234409789093605 0.006291952306666035
